…
: "The user \'nike\' has a biography of \'Spotlighting athlete* and 🌟 stories\\n#BlackLivesMatter, #StopAsianHate, and #NoPrideNoSport\'. You can find more information about them on their external URL: [https://linkin.bio/nike](https://linkin.bio/nike). Unfortunately, there are no recent media posts available for this user."\n}'],
      dtype=object)}DATA_ID=llm/pubdatasets_toolbench PRE_TRAINED_M=/home/common/plm/Qwen/Qwen3-8B/model.h5 LORA_RANK=8 LORA_ALPHA=16
DATA_ID=llm/pubdatasets_squad_closed PRE_TRAINED_M=/home/common/plm/Qwen/Qwen3-8B/model.h5 LORA_RANK=8 LORA_ALPHA=16
Decoder(
  (wemb): Embedding(151936, 4096, padding_idx=151643)
  (nets): ModuleList(
    (0): DecoderLayer(
      (self_attn): ResSelfAttn(
        (net): SelfAttn(
          (adaptor): Linear(in_features=4096, out_features=6144, bias=False)
          (outer): Linear(in_features=4096, out_features=4096, bias=False)
          (normer): Softmax(dim=-1)
          (q_normer): RMSNorm((128,), eps=1e-06, elementwise_affine=True)
          (k_normer): RMSNorm((128,), eps=1e-06, elementwise_affine=True)
        )
        (normer): RMSNorm((4096,), eps=1e-06, elementwise_affine=True)
      )
      (cross_attn): None
      (ff): PositionwiseFF(
        (net): Sequential(
          (0): Linear(in_features=4096, out_features=24576, bias=False)
          (1): SwiGLU(
            (act): SiLU()
          )
          (2): Linear(in_features=12288, out_features=4096, bias=False)
        )
        (normer): RMSNorm((4096,), eps=1e-06, elementwise_affine=True)
      )
    )
    (1-35): 35 x DecoderLayer(
      (self_attn): ResSelfAttn(
        (net): SelfAttn(
          (adaptor): Linear(in_features=4096, out_features=6144, bias=False)
          (outer): Linear(in_features=4096, out_features=4096, bias=False)
          (normer): Softmax(dim=-1)
          (q_normer): RMSNorm((128,), eps=1e-06, elementwise_affine=True)
          (k_normer): RMSNorm((128,), eps=1e-06, elementwise_affine=True)
          (ref_ropem): SelfAttn(
            (adaptor): Linear(in_features=4096, out_features=6144, bias=False)
            (outer): Linear(in_features=4096, out_features=4096, bias=False)
            (normer): Softmax(dim=-1)
            (q_normer): RMSNorm((128,), eps=1e-06, elementwise_affine=True)
            (k_normer): RMSNorm((128,), eps=1e-06, elementwise_affine=True)
          )
        )
        (normer): RMSNorm((4096,), eps=1e-06, elementwise_affine=True)
      )
      (cross_attn): None
      (ff): PositionwiseFF(
        (net): Sequential(
          (0): Linear(in_features=4096, out_features=24576, bias=False)
          (1): SwiGLU(
            (act): SiLU()
          )
          (2): Linear(in_features=12288, out_features=4096, bias=False)
        )
        (normer): RMSNorm((4096,), eps=1e-06, elementwise_affine=True)
      )
    )
  )
  (classifier): Linear(in_features=4096, out_features=151936, bias=False)
  (lsm): LogSoftmax(dim=-1)
  (out_normer): RMSNorm((4096,), eps=1e-06, elementwise_affine=True)
)
DATA_ID=llm/pubdatasets_toolbench PRE_TRAINED_M=/home/common/plm/Qwen/Qwen3-8B/model.h5 LORA_RANK=8 LORA_ALPHA=16
Decoder(
  (wemb): Embedding(151936, 4096, padding_idx=151643)
  (nets): ModuleList(
    (0): DecoderLayer(
      (self_attn): ResSelfAttn(
        (net): SelfAttn(
          (adaptor): Linear(in_features=4096, out_features=6144, bias=False)
          (outer): Linear(in_features=4096, out_features=4096, bias=False)
          (normer): Softmax(dim=-1)
          (q_normer): RMSNorm((128,), eps=1e-06, elementwise_affine=True)
          (k_normer): RMSNorm((128,), eps=1e-06, elementwise_affine=True)
        )
        (normer): RMSNorm((4096,), eps=1e-06, elementwise_affine=True)
      )
      (cross_attn): None
      (ff): PositionwiseFF(
        (net): Sequential(
          (0): Linear(in_features=4096, out_features=24576, bias=False)
          (1): SwiGLU(
            (act): SiLU()
          )
          (2): Linear(in_features=12288, out_features=4096, bias=False)
        )
        (normer): RMSNorm((4096,), eps=1e-06, elementwise_affine=True)
      )
    )
    (1-35): 35 x DecoderLayer(
      (self_attn): ResSelfAttn(
        (net): SelfAttn(
          (adaptor): Linear(in_features=4096, out_features=6144, bias=False)
          (outer): Linear(in_features=4096, out_features=4096, bias=False)
          (normer): Softmax(dim=-1)
          (q_normer): RMSNorm((128,), eps=1e-06, elementwise_affine=True)
          (k_normer): RMSNorm((128,), eps=1e-06, elementwise_affine=True)
          (ref_ropem): SelfAttn(
            (adaptor): Linear(in_features=4096, out_features=6144, bias=False)
            (outer): Linear(in_features=4096, out_features=4096, bias=False)
            (normer): Softmax(dim=-1)
            (q_normer): RMSNorm((128,), eps=1e-06, elementwise_affine=True)
            (k_normer): RMSNorm((128,), eps=1e-06, elementwise_affine=True)
          )
        )
        (normer): RMSNorm((4096,), eps=1e-06, elementwise_affine=True)
      )
      (cross_attn): None
      (ff): PositionwiseFF(
        (net): Sequential(
          (0): Linear(in_features=4096, out_features=24576, bias=False)
          (1): SwiGLU(
            (act): SiLU()
          )
          (2): Linear(in_features=12288, out_features=4096, bias=False)
        )
        (normer): RMSNorm((4096,), eps=1e-06, elementwise_affine=True)
      )
    )
  )
  (classifier): Linear(in_features=4096, out_features=151936, bias=False)
  (lsm): LogSoftmax(dim=-1)
  (out_normer): RMSNorm((4096,), eps=1e-06, elementwise_affine=True)
)
DATA_ID=llm/pubdatasets_squad_closed PRE_TRAINED_M=/home/common/plm/Qwen/Qwen3-8B/model.h5 LORA_RANK=8 LORA_ALPHA=16
DATA_ID=llm/pubdatasets_squad_closed PRE_TRAINED_M=/home/common/plm/Qwen/Qwen3-8B/model.h5 LORA_RANK=8 LORA_ALPHA=16
DATA_ID=llm/pubdatasets_toolbench PRE_TRAINED_M=/home/common/plm/Qwen/Qwen3-8B/model.h5 LORA_RANK=8 LORA_ALPHA=16
DATA_ID=llm/pubdatasets_squad_closed PRE_TRAINED_M=/home/common/plm/Qwen/Qwen3-8B/model.h5 LORA_RANK=8 LORA_ALPHA=16
DATA_ID=llm/pubdatasets_squad_closed PRE_TRAINED_M=/home/common/plm/Qwen/Qwen3-8B/model.h5 LORA_RANK=8 LORA_ALPHA=16
Decoder(
  (wemb): Embedding(151936, 4096, padding_idx=151643)
  (nets): ModuleList(
    (0): DecoderLayer(
      (self_attn): ResSelfAttn(
        (net): SelfAttn(
          (adaptor): Linear(in_features=4096, lora_features=8, out_features=6144, bias=False)
          (outer): Linear(in_features=4096, lora_features=8, out_features=4096, bias=False)
          (normer): Softmax(dim=-1)
          (q_normer): RMSNorm((128,), eps=1e-06, elementwise_affine=True)
          (k_normer): RMSNorm((128,), eps=1e-06, elementwise_affine=True)
        )
        (normer): RMSNorm((4096,), eps=1e-06, elementwise_affine=True)
      )
      (cross_attn): None
      (ff): PositionwiseFF(
        (net): Sequential(
          (0): Linear(in_features=4096, out_features=24576, bias=False)
          (1): SwiGLU(
            (act): SiLU()
          )
          (2): Linear(in_features=12288, out_features=4096, bias=False)
        )
        (normer): RMSNorm((4096,), eps=1e-06, elementwise_affine=True)
      )
    )
    (1-35): 35 x DecoderLayer(
      (self_attn): ResSelfAttn(
        (net): SelfAttn(
          (adaptor): Linear(in_features=4096, lora_features=8, out_features=6144, bias=False)
          (outer): Linear(in_features=4096, lora_features=8, out_features=4096, bias=False)
          (normer): Softmax(dim=-1)
          (q_normer): RMSNorm((128,), eps=1e-06, elementwise_affine=True)
          (k_normer): RMSNorm((128,), eps=1e-06, elementwise_affine=True)
          (ref_ropem): SelfAttn(
            (adaptor): Linear(in_features=4096, lora_features=8, out_features=6144, bias=False)
            (outer): Linear(in_features=4096, lora_features=8, out_features=4096, bias=False)
            (normer): Softmax(dim=-1)
            (q_normer): RMSNorm((128,), eps=1e-06, elementwise_affine=True)
            (k_normer): RMSNorm((128,), eps=1e-06, elementwise_affine=True)
          )
        )
        (normer): RMSNorm((4096,), eps=1e-06, elementwise_affine=True)
      )
      (cross_attn): None
      (ff): PositionwiseFF(
        (net): Sequential(
          (0): Linear(in_features=4096, out_features=24576, bias=False)
          (1): SwiGLU(
            (act): SiLU()
          )
          (2): Linear(in_features=12288, out_features=4096, bias=False)
        )
        (normer): RMSNorm((4096,), eps=1e-06, elementwise_affine=True)
      )
    )
  )
  (classifier): Linear(in_features=4096, out_features=151936, bias=False)
  (lsm): LogSoftmax(dim=-1)
  (out_normer): RMSNorm((4096,), eps=1e-06, elementwise_affine=True)
)
DATA_ID=llm/pubdatasets_toolbench PRE_TRAINED_M=/home/common/plm/Qwen/Qwen3-8B/model.h5 LORA_RANK=8 LORA_ALPHA=16
Decoder(
  (wemb): Embedding(151936, 4096, padding_idx=151643)
  (nets): ModuleList(
    (0): DecoderLayer(
      (self_attn): ResSelfAttn(
        (net): SelfAttn(
          (adaptor): Linear(in_features=4096, lora_features=8, out_features=6144, bias=False)
          (outer): Linear(in_features=4096, lora_features=8, out_features=4096, bias=False)
          (normer): Softmax(dim=-1)
          (q_normer): RMSNorm((128,), eps=1e-06, elementwise_affine=True)
          (k_normer): RMSNorm((128,), eps=1e-06, elementwise_affine=True)
        )
        (normer): RMSNorm((4096,), eps=1e-06, elementwise_affine=True)
      )
      (cross_attn): None
      (ff): PositionwiseFF(
        (net): Sequential(
          (0): Linear(in_features=4096, out_features=24576, bias=False)
          (1): SwiGLU(
            (act): SiLU()
          )
          (2): Linear(in_features=12288, out_features=4096, bias=False)
        )
        (normer): RMSNorm((4096,), eps=1e-06, elementwise_affine=True)
      )
    )
    (1-35): 35 x DecoderLayer(
      (self_attn): ResSelfAttn(
        (net): SelfAttn(
          (adaptor): Linear(in_features=4096, lora_features=8, out_features=6144, bias=False)
          (outer): Linear(in_features=4096, lora_features=8, out_features=4096, bias=False)
          (normer): Softmax(dim=-1)
          (q_normer): RMSNorm((128,), eps=1e-06, elementwise_affine=True)
          (k_normer): RMSNorm((128,), eps=1e-06, elementwise_affine=True)
          (ref_ropem): SelfAttn(
            (adaptor): Linear(in_features=4096, lora_features=8, out_features=6144, bias=False)
            (outer): Linear(in_features=4096, lora_features=8, out_features=4096, bias=False)
            (normer): Softmax(dim=-1)
            (q_normer): RMSNorm((128,), eps=1e-06, elementwise_affine=True)
            (k_normer): RMSNorm((128,), eps=1e-06, elementwise_affine=True)
          )
        )
        (normer): RMSNorm((4096,), eps=1e-06, elementwise_affine=True)
      )
      (cross_attn): None
      (ff): PositionwiseFF(
        (net): Sequential(
          (0): Linear(in_features=4096, out_features=24576, bias=False)
          (1): SwiGLU(
            (act): SiLU()
          )
          (2): Linear(in_features=12288, out_features=4096, bias=False)
        )
        (normer): RMSNorm((4096,), eps=1e-06, elementwise_affine=True)
      )
    )
  )
  (classifier): Linear(in_features=4096, out_features=151936, bias=False)
  (lsm): LogSoftmax(dim=-1)
  (out_normer): RMSNorm((4096,), eps=1e-06, elementwise_affine=True)
)
DATA_ID=llm/pubdatasets_toolbench PRE_TRAINED_M=/home/common/plm/Qwen/Qwen3-8B/model.h5 LORA_RANK=8 LORA_ALPHA=16
Decoder(
  (wemb): Embedding(151936, 4096, padding_idx=151643)
  (nets): ModuleList(
    (0): DecoderLayer(
      (self_attn): ResSelfAttn(
        (net): SelfAttn(
          (adaptor): Linear(in_features=4096, lora_features=8, out_features=6144, bias=False)
          (outer): Linear(in_features=4096, lora_features=8, out_features=4096, bias=False)
          (normer): Softmax(dim=-1)
          (q_normer): RMSNorm((128,), eps=1e-06, elementwise_affine=True)
          (k_normer): RMSNorm((128,), eps=1e-06, elementwise_affine=True)
        )
        (normer): RMSNorm((4096,), eps=1e-06, elementwise_affine=True)
      )
      (cross_attn): None
      (ff): PositionwiseFF(
        (net): Sequential(
          (0): Linear(in_features=4096, out_features=24576, bias=False)
          (1): SwiGLU(
            (act): SiLU()
          )
          (2): Linear(in_features=12288, out_features=4096, bias=False)
        )
        (normer): RMSNorm((4096,), eps=1e-06, elementwise_affine=True)
      )
    )
    (1-35): 35 x DecoderLayer(
      (self_attn): ResSelfAttn(
        (net): SelfAttn(
          (adaptor): Linear(in_features=4096, lora_features=8, out_features=6144, bias=False)
          (outer): Linear(in_features=4096, lora_features=8, out_features=4096, bias=False)
          (normer): Softmax(dim=-1)
          (q_normer): RMSNorm((128,), eps=1e-06, elementwise_affine=True)
          (k_normer): RMSNorm((128,), eps=1e-06, elementwise_affine=True)
          (ref_ropem): SelfAttn(
            (adaptor): Linear(in_features=4096, lora_features=8, out_features=6144, bias=False)
            (outer): Linear(in_features=4096, lora_features=8, out_features=4096, bias=False)
            (normer): Softmax(dim=-1)
            (q_normer): RMSNorm((128,), eps=1e-06, elementwise_affine=True)
            (k_normer): RMSNorm((128,), eps=1e-06, elementwise_affine=True)
          )
        )
        (normer): RMSNorm((4096,), eps=1e-06, elementwise_affine=True)
      )
      (cross_attn): None
      (ff): PositionwiseFF(
        (net): Sequential(
          (0): Linear(in_features=4096, out_features=24576, bias=False)
          (1): SwiGLU(
            (act): SiLU()
          )
          (2): Linear(in_features=12288, out_features=4096, bias=False)
        )
        (normer): RMSNorm((4096,), eps=1e-06, elementwise_affine=True)
      )
    )
  )
  (classifier): Linear(in_features=4096, out_features=151936, bias=False)
  (lsm): LogSoftmax(dim=-1)
  (out_normer): RMSNorm((4096,), eps=1e-06, elementwise_affine=True)
)
DATA_ID=llm/pubdatasets_toolbench PRE_TRAINED_M=/home/common/plm/Qwen/Qwen3-8B/model.h5 LORA_RANK=8 LORA_ALPHA=16
Decoder(
  (wemb): Embedding(151936, 4096, padding_idx=151643)
  (nets): ModuleList(
    (0): DecoderLayer(
      (self_attn): ResSelfAttn(
        (net): SelfAttn(
          (adaptor): Linear(in_features=4096, out_features=6144, bias=False)
          (outer): Linear(in_features=4096, out_features=4096, bias=False)
          (normer): Softmax(dim=-1)
          (q_normer): RMSNorm((128,), eps=1e-06, elementwise_affine=True)
          (k_normer): RMSNorm((128,), eps=1e-06, elementwise_affine=True)
        )
        (normer): RMSNorm((4096,), eps=1e-06, elementwise_affine=True)
      )
      (cross_attn): None
      (ff): PositionwiseFF(
        (net): Sequential(
          (0): Linear(in_features=4096, out_features=24576, bias=False)
          (1): SwiGLU(
            (act): SiLU()
          )
          (2): Linear(in_features=12288, out_features=4096, bias=False)
        )
        (normer): RMSNorm((4096,), eps=1e-06, elementwise_affine=True)
      )
    )
    (1-35): 35 x DecoderLayer(
      (self_attn): ResSelfAttn(
        (net): SelfAttn(
          (adaptor): Linear(in_features=4096, out_features=6144, bias=False)
          (outer): Linear(in_features=4096, out_features=4096, bias=False)
          (normer): Softmax(dim=-1)
          (q_normer): RMSNorm((128,), eps=1e-06, elementwise_affine=True)
          (k_normer): RMSNorm((128,), eps=1e-06, elementwise_affine=True)
          (ref_ropem): SelfAttn(
            (adaptor): Linear(in_features=4096, out_features=6144, bias=False)
            (outer): Linear(in_features=4096, out_features=4096, bias=False)
            (normer): Softmax(dim=-1)
            (q_normer): RMSNorm((128,), eps=1e-06, elementwise_affine=True)
            (k_normer): RMSNorm((128,), eps=1e-06, elementwise_affine=True)
          )
        )
        (normer): RMSNorm((4096,), eps=1e-06, elementwise_affine=True)
      )
      (cross_attn): None
      (ff): PositionwiseFF(
        (net): Sequential(
          (0): Linear(in_features=4096, out_features=24576, bias=False)
          (1): SwiGLU(
            (act): SiLU()
          )
          (2): Linear(in_features=12288, out_features=4096, bias=False)
        )
        (normer): RMSNorm((4096,), eps=1e-06, elementwise_affine=True)
      )
    )
  )
  (classifier): Linear(in_features=4096, out_features=151936, bias=False)
  (lsm): LogSoftmax(dim=-1)
  (out_normer): RMSNorm((4096,), eps=1e-06, elementwise_affine=True)
)
DATA_ID=llm/pubdatasets_metamathqa PRE_TRAINED_M=/home/common/plm/Qwen/Qwen3-8B/model.h5 LORA_RANK=8 LORA_ALPHA=16 USE_AMP=0
DATA_ID=llm/pubdatasets_metamathqa PRE_TRAINED_M=/home/common/plm/Qwen/Qwen3-8B/model.h5 LORA_RANK=8 LORA_ALPHA=16 USE_AMP=0
Decoder(
  (wemb): Embedding(151936, 4096, padding_idx=151643)
  (nets): ModuleList(
    (0): DecoderLayer(
      (self_attn): ResSelfAttn(
        (net): SelfAttn(
          (adaptor): Linear(in_features=4096, lora_features=8, out_features=6144, bias=False)
          (outer): Linear(in_features=4096, out_features=4096, bias=False)
          (normer): Softmax(dim=-1)
          (q_normer): RMSNorm((128,), eps=1e-06, elementwise_affine=True)
          (k_normer): RMSNorm((128,), eps=1e-06, elementwise_affine=True)
        )
        (normer): RMSNorm((4096,), eps=1e-06, elementwise_affine=True)
      )
      (cross_attn): None
      (ff): PositionwiseFF(
        (net): Sequential(
          (0): Linear(in_features=4096, out_features=24576, bias=False)
          (1): SwiGLU(
            (act): SiLU()
          )
          (2): Linear(in_features=12288, out_features=4096, bias=False)
        )
        (normer): RMSNorm((4096,), eps=1e-06, elementwise_affine=True)
      )
    )
    (1-35): 35 x DecoderLayer(
      (self_attn): ResSelfAttn(
        (net): SelfAttn(
          (adaptor): Linear(in_features=4096, lora_features=8, out_features=6144, bias=False)
          (outer): Linear(in_features=4096, out_features=4096, bias=False)
          (normer): Softmax(dim=-1)
          (q_normer): RMSNorm((128,), eps=1e-06, elementwise_affine=True)
          (k_normer): RMSNorm((128,), eps=1e-06, elementwise_affine=True)
          (ref_ropem): SelfAttn(
            (adaptor): Linear(in_features=4096, lora_features=8, out_features=6144, bias=False)
            (outer): Linear(in_features=4096, out_features=4096, bias=False)
            (normer): Softmax(dim=-1)
            (q_normer): RMSNorm((128,), eps=1e-06, elementwise_affine=True)
            (k_normer): RMSNorm((128,), eps=1e-06, elementwise_affine=True)
          )
        )
        (normer): RMSNorm((4096,), eps=1e-06, elementwise_affine=True)
      )
      (cross_attn): None
      (ff): PositionwiseFF(
        (net): Sequential(
          (0): Linear(in_features=4096, out_features=24576, bias=False)
          (1): SwiGLU(
            (act): SiLU()
          )
          (2): Linear(in_features=12288, out_features=4096, bias=False)
        )
        (normer): RMSNorm((4096,), eps=1e-06, elementwise_affine=True)
      )
    )
  )
  (classifier): Linear(in_features=4096, out_features=151936, bias=False)
  (lsm): LogSoftmax(dim=-1)
  (out_normer): RMSNorm((4096,), eps=1e-06, elementwise_affine=True)
)
DATA_ID=llm/pubdatasets_toolbench PRE_TRAINED_M=/home/common/plm/Qwen/Qwen3-8B/model.h5 LORA_RANK=8 LORA_ALPHA=16
Decoder(
  (wemb): Embedding(151936, 4096, padding_idx=151643)
  (nets): ModuleList(
    (0): DecoderLayer(
      (self_attn): ResSelfAttn(
        (net): SelfAttn(
          (adaptor): Linear(in_features=4096, lora_features=8, out_features=6144, bias=False)
          (outer): Linear(in_features=4096, out_features=4096, bias=False)
          (normer): Softmax(dim=-1)
          (q_normer): RMSNorm((128,), eps=1e-06, elementwise_affine=True)
          (k_normer): RMSNorm((128,), eps=1e-06, elementwise_affine=True)
        )
        (normer): RMSNorm((4096,), eps=1e-06, elementwise_affine=True)
      )
      (cross_attn): None
      (ff): PositionwiseFF(
        (net): Sequential(
          (0): Linear(in_features=4096, out_features=24576, bias=False)
          (1): SwiGLU(
            (act): SiLU()
          )
          (2): Linear(in_features=12288, out_features=4096, bias=False)
        )
        (normer): RMSNorm((4096,), eps=1e-06, elementwise_affine=True)
      )
    )
    (1-35): 35 x DecoderLayer(
      (self_attn): ResSelfAttn(
        (net): SelfAttn(
          (adaptor): Linear(in_features=4096, lora_features=8, out_features=6144, bias=False)
          (outer): Linear(in_features=4096, out_features=4096, bias=False)
          (normer): Softmax(dim=-1)
          (q_normer): RMSNorm((128,), eps=1e-06, elementwise_affine=True)
          (k_normer): RMSNorm((128,), eps=1e-06, elementwise_affine=True)
          (ref_ropem): SelfAttn(
            (adaptor): Linear(in_features=4096, lora_features=8, out_features=6144, bias=False)
            (outer): Linear(in_features=4096, out_features=4096, bias=False)
            (normer): Softmax(dim=-1)
            (q_normer): RMSNorm((128,), eps=1e-06, elementwise_affine=True)
            (k_normer): RMSNorm((128,), eps=1e-06, elementwise_affine=True)
          )
        )
        (normer): RMSNorm((4096,), eps=1e-06, elementwise_affine=True)
      )
      (cross_attn): None
      (ff): PositionwiseFF(
        (net): Sequential(
          (0): Linear(in_features=4096, out_features=24576, bias=False)
          (1): SwiGLU(
            (act): SiLU()
          )
          (2): Linear(in_features=12288, out_features=4096, bias=False)
        )
        (normer): RMSNorm((4096,), eps=1e-06, elementwise_affine=True)
      )
    )
  )
  (classifier): Linear(in_features=4096, out_features=151936, bias=False)
  (lsm): LogSoftmax(dim=-1)
  (out_normer): RMSNorm((4096,), eps=1e-06, elementwise_affine=True)
)
DATA_ID=llm/pubdatasets_metamathqa PRE_TRAINED_M=/home/common/plm/Qwen/Qwen3-8B/model.h5 LORA_RANK=8 LORA_ALPHA=16 USE_AMP=0
Decoder(
  (wemb): Embedding(151936, 4096, padding_idx=151643)
  (nets): ModuleList(
    (0): DecoderLayer(
      (self_attn): ResSelfAttn(
        (net): SelfAttn(
          (adaptor): Linear(in_features=4096, lora_features=8, out_features=6144, bias=False)
          (outer): Linear(in_features=4096, out_features=4096, bias=False)
          (normer): Softmax(dim=-1)
          (q_normer): RMSNorm((128,), eps=1e-06, elementwise_affine=True)
          (k_normer): RMSNorm((128,), eps=1e-06, elementwise_affine=True)
        )
        (normer): RMSNorm((4096,), eps=1e-06, elementwise_affine=True)
      )
      (cross_attn): None
      (ff): PositionwiseFF(
        (net): Sequential(
          (0): Linear(in_features=4096, out_features=24576, bias=False)
          (1): SwiGLU(
            (act): SiLU()
          )
          (2): Linear(in_features=12288, out_features=4096, bias=False)
        )
        (normer): RMSNorm((4096,), eps=1e-06, elementwise_affine=True)
      )
    )
    (1-35): 35 x DecoderLayer(
      (self_attn): ResSelfAttn(
        (net): SelfAttn(
          (adaptor): Linear(in_features=4096, lora_features=8, out_features=6144, bias=False)
          (outer): Linear(in_features=4096, out_features=4096, bias=False)
          (normer): Softmax(dim=-1)
          (q_normer): RMSNorm((128,), eps=1e-06, elementwise_affine=True)
          (k_normer): RMSNorm((128,), eps=1e-06, elementwise_affine=True)
          (ref_ropem): SelfAttn(
            (adaptor): Linear(in_features=4096, lora_features=8, out_features=6144, bias=False)
            (outer): Linear(in_features=4096, out_features=4096, bias=False)
            (normer): Softmax(dim=-1)
            (q_normer): RMSNorm((128,), eps=1e-06, elementwise_affine=True)
            (k_normer): RMSNorm((128,), eps=1e-06, elementwise_affine=True)
          )
        )
        (normer): RMSNorm((4096,), eps=1e-06, elementwise_affine=True)
      )
      (cross_attn): None
      (ff): PositionwiseFF(
        (net): Sequential(
          (0): Linear(in_features=4096, out_features=24576, bias=False)
          (1): SwiGLU(
            (act): SiLU()
          )
          (2): Linear(in_features=12288, out_features=4096, bias=False)
        )
        (normer): RMSNorm((4096,), eps=1e-06, elementwise_affine=True)
      )
    )
  )
  (classifier): Linear(in_features=4096, out_features=151936, bias=False)
  (lsm): LogSoftmax(dim=-1)
  (out_normer): RMSNorm((4096,), eps=1e-06, elementwise_affine=True)
)
DATA_ID=llm/pubdatasets_toolbench PRE_TRAINED_M=/home/common/plm/Qwen/Qwen3-8B/model.h5 LORA_RANK=8 LORA_ALPHA=16
Decoder(
  (wemb): Embedding(151936, 4096, padding_idx=151643)
  (nets): ModuleList(
    (0): DecoderLayer(
      (self_attn): ResSelfAttn(
        (net): SelfAttn(
          (adaptor): Linear(in_features=4096, lora_features=8, out_features=6144, bias=False)
          (outer): Linear(in_features=4096, out_features=4096, bias=False)
          (normer): Softmax(dim=-1)
          (q_normer): RMSNorm((128,), eps=1e-06, elementwise_affine=True)
          (k_normer): RMSNorm((128,), eps=1e-06, elementwise_affine=True)
        )
        (normer): RMSNorm((4096,), eps=1e-06, elementwise_affine=True)
      )
      (cross_attn): None
      (ff): PositionwiseFF(
        (net): Sequential(
          (0): Linear(in_features=4096, out_features=24576, bias=False)
          (1): SwiGLU(
            (act): SiLU()
          )
          (2): Linear(in_features=12288, out_features=4096, bias=False)
        )
        (normer): RMSNorm((4096,), eps=1e-06, elementwise_affine=True)
      )
    )
    (1-35): 35 x DecoderLayer(
      (self_attn): ResSelfAttn(
        (net): SelfAttn(
          (adaptor): Linear(in_features=4096, lora_features=8, out_features=6144, bias=False)
          (outer): Linear(in_features=4096, out_features=4096, bias=False)
          (normer): Softmax(dim=-1)
          (q_normer): RMSNorm((128,), eps=1e-06, elementwise_affine=True)
          (k_normer): RMSNorm((128,), eps=1e-06, elementwise_affine=True)
          (ref_ropem): SelfAttn(
            (adaptor): Linear(in_features=4096, lora_features=8, out_features=6144, bias=False)
            (outer): Linear(in_features=4096, out_features=4096, bias=False)
            (normer): Softmax(dim=-1)
            (q_normer): RMSNorm((128,), eps=1e-06, elementwise_affine=True)
            (k_normer): RMSNorm((128,), eps=1e-06, elementwise_affine=True)
          )
        )
        (normer): RMSNorm((4096,), eps=1e-06, elementwise_affine=True)
      )
      (cross_attn): None
      (ff): PositionwiseFF(
        (net): Sequential(
          (0): Linear(in_features=4096, out_features=24576, bias=False)
          (1): SwiGLU(
            (act): SiLU()
          )
          (2): Linear(in_features=12288, out_features=4096, bias=False)
        )
        (normer): RMSNorm((4096,), eps=1e-06, elementwise_affine=True)
      )
    )
  )
  (classifier): Linear(in_features=4096, out_features=151936, bias=False)
  (lsm): LogSoftmax(dim=-1)
  (out_normer): RMSNorm((4096,), eps=1e-06, elementwise_affine=True)
)
OUT=expm/llm/pubdatasets_squad_closed/std/base/pred_last.txt
TOKENIZER=/home/common/plm/Qwen/Qwen3-8B
MODEL=expm/llm/pubdatasets_squad_closed/std/base/merge_last.h5
CUDA_VISIBLE_DEVICES=1
DATA_ID=llm/pubdatasets_metamathqa PRE_TRAINED_M=/home/common/plm/Qwen/Qwen3-8B/model.h5 LORA_RANK=8 LORA_ALPHA=16 USE_AMP=0
DATA_ID=llm/pubdatasets_nq_closed PRE_TRAINED_M=/home/common/plm/Qwen/Qwen3-8B/model.h5 LORA_RANK=8 LORA_ALPHA=16
Decoder(
  (wemb): Embedding(151936, 4096, padding_idx=151643)
  (nets): ModuleList(
    (0): DecoderLayer(
      (self_attn): ResSelfAttn(
        (net): SelfAttn(
          (adaptor): Linear(in_features=4096, lora_features=8, out_features=6144, bias=False)
          (outer): Linear(in_features=4096, out_features=4096, bias=False)
          (normer): Softmax(dim=-1)
          (q_normer): RMSNorm((128,), eps=1e-06, elementwise_affine=True)
          (k_normer): RMSNorm((128,), eps=1e-06, elementwise_affine=True)
        )
        (normer): RMSNorm((4096,), eps=1e-06, elementwise_affine=True)
      )
      (cross_attn): None
      (ff): PositionwiseFF(
        (net): Sequential(
          (0): Linear(in_features=4096, out_features=24576, bias=False)
          (1): SwiGLU(
            (act): SiLU()
          )
          (2): Linear(in_features=12288, out_features=4096, bias=False)
        )
        (normer): RMSNorm((4096,), eps=1e-06, elementwise_affine=True)
      )
    )
    (1-35): 35 x DecoderLayer(
      (self_attn): ResSelfAttn(
        (net): SelfAttn(
          (adaptor): Linear(in_features=4096, lora_features=8, out_features=6144, bias=False)
          (outer): Linear(in_features=4096, out_features=4096, bias=False)
          (normer): Softmax(dim=-1)
          (q_normer): RMSNorm((128,), eps=1e-06, elementwise_affine=True)
          (k_normer): RMSNorm((128,), eps=1e-06, elementwise_affine=True)
          (ref_ropem): SelfAttn(
            (adaptor): Linear(in_features=4096, lora_features=8, out_features=6144, bias=False)
            (outer): Linear(in_features=4096, out_features=4096, bias=False)
            (normer): Softmax(dim=-1)
            (q_normer): RMSNorm((128,), eps=1e-06, elementwise_affine=True)
            (k_normer): RMSNorm((128,), eps=1e-06, elementwise_affine=True)
          )
        )
        (normer): RMSNorm((4096,), eps=1e-06, elementwise_affine=True)
      )
      (cross_attn): None
      (ff): PositionwiseFF(
        (net): Sequential(
          (0): Linear(in_features=4096, out_features=24576, bias=False)
          (1): SwiGLU(
            (act): SiLU()
          )
          (2): Linear(in_features=12288, out_features=4096, bias=False)
        )
        (normer): RMSNorm((4096,), eps=1e-06, elementwise_affine=True)
      )
    )
  )
  (classifier): Linear(in_features=4096, out_features=151936, bias=False)
  (lsm): LogSoftmax(dim=-1)
  (out_normer): RMSNorm((4096,), eps=1e-06, elementwise_affine=True)
)
DATA_ID=llm/pubdatasets_toolbench PRE_TRAINED_M=/home/common/plm/Qwen/Qwen3-8B/model.h5 LORA_RANK=8 LORA_ALPHA=16
DATA_ID=llm/pubdatasets_metamathqa PRE_TRAINED_M=/home/common/plm/Qwen/Qwen3-8B/model.h5 LORA_RANK=8 LORA_ALPHA=16 USE_AMP=0
DATA_ID=llm/pubdatasets_toolbench PRE_TRAINED_M=/home/common/plm/Qwen/Qwen3-8B/model.h5 LORA_RANK=8 LORA_ALPHA=16
DATA_ID=llm/pubdatasets_metamathqa PRE_TRAINED_M=/home/common/plm/Qwen/Qwen3-8B/model.h5 LORA_RANK=8 LORA_ALPHA=16 USE_AMP=0
OUT=expm/llm/pubdatasets_squad_closed/std/base/pred_last.txt
TOKENIZER=/home/common/plm/Qwen/Qwen3-8B
MODEL=expm/llm/pubdatasets_squad_closed/std/base/merge_last.h5
DATA_ID=llm/pubdatasets_squad_closed
CUDA_VISIBLE_DEVICES=1
DATA_ID=llm/pubdatasets_toolbench PRE_TRAINED_M=/home/common/plm/Qwen/Qwen3-8B/model.h5 LORA_RANK=8 LORA_ALPHA=16
Decoder(
  (wemb): Embedding(151936, 4096, padding_idx=151643)
  (nets): ModuleList(
    (0): DecoderLayer(
      (self_attn): ResSelfAttn(
        (net): SelfAttn(
          (adaptor): Linear(in_features=4096, lora_features=8, out_features=6144, bias=False)
          (outer): Linear(in_features=4096, out_features=4096, bias=False)
          (normer): Softmax(dim=-1)
          (q_normer): RMSNorm((128,), eps=1e-06, elementwise_affine=True)
          (k_normer): RMSNorm((128,), eps=1e-06, elementwise_affine=True)
        )
        (normer): RMSNorm((4096,), eps=1e-06, elementwise_affine=True)
      )
      (cross_attn): None
      (ff): PositionwiseFF(
        (net): Sequential(
          (0): Linear(in_features=4096, out_features=24576, bias=False)
          (1): SwiGLU(
            (act): SiLU()
          )
          (2): Linear(in_features=12288, out_features=4096, bias=False)
        )
        (normer): RMSNorm((4096,), eps=1e-06, elementwise_affine=True)
      )
    )
    (1-35): 35 x DecoderLayer(
      (self_attn): ResSelfAttn(
        (net): SelfAttn(
          (adaptor): Linear(in_features=4096, lora_features=8, out_features=6144, bias=False)
          (outer): Linear(in_features=4096, out_features=4096, bias=False)
          (normer): Softmax(dim=-1)
          (q_normer): RMSNorm((128,), eps=1e-06, elementwise_affine=True)
          (k_normer): RMSNorm((128,), eps=1e-06, elementwise_affine=True)
          (ref_ropem): SelfAttn(
            (adaptor): Linear(in_features=4096, lora_features=8, out_features=6144, bias=False)
            (outer): Linear(in_features=4096, out_features=4096, bias=False)
            (normer): Softmax(dim=-1)
            (q_normer): RMSNorm((128,), eps=1e-06, elementwise_affine=True)
            (k_normer): RMSNorm((128,), eps=1e-06, elementwise_affine=True)
          )
        )
        (normer): RMSNorm((4096,), eps=1e-06, elementwise_affine=True)
      )
      (cross_attn): None
      (ff): PositionwiseFF(
        (net): Sequential(
          (0): Linear(in_features=4096, out_features=24576, bias=False)
          (1): SwiGLU(
            (act): SiLU()
          )
          (2): Linear(in_features=12288, out_features=4096, bias=False)
        )
        (normer): RMSNorm((4096,), eps=1e-06, elementwise_affine=True)
      )
    )
  )
  (classifier): Linear(in_features=4096, out_features=151936, bias=False)
  (lsm): LogSoftmax(dim=-1)
  (out_normer): RMSNorm((4096,), eps=1e-06, elementwise_affine=True)
)
DATA_ID=llm/pubdatasets_metamathqa PRE_TRAINED_M=/home/common/plm/Qwen/Qwen3-8B/model.h5 HPLSTM_FUSION=A LORA_RANK=<unset> LORA_ALPHA=<unset> USE_AMP=0
OUT=expm/llm/pubdatasets_squad_closed/std/base/pred_last.txt
TOKENIZER=/home/common/plm/Qwen/Qwen3-8B
…
